[10:56:13] DeepAR.Train: Loading the datasets...
[10:56:13] DeepAR.Data: train_len: 162
[10:56:13] DeepAR.Data: building datasets from data/t_stock_processed...
[10:56:13] DeepAR.Data: test_len: 67
[10:56:13] DeepAR.Data: building datasets from data/t_stock_processed...
[10:56:13] DeepAR.Data: weights: tensor([… dtype=torch.float64)
[10:56:13] DeepAR.Data: num samples: 162
[10:56:13] DeepAR.Train: Loading complete.
[10:56:13] DeepAR.Train: Model: 
Net(
  (embedding): Embedding(1284, 24)
  (lstm): LSTM(34, 96, num_layers=2, dropout=0.15)
  (skip_connection): Linear(in_features=34, out_features=96, bias=True)
  (distribution_mu): Linear(in_features=192, out_features=1, bias=True)
  (distribution_presigma): Linear(in_features=192, out_features=1, bias=True)
  (distribution_sigma): Softplus(beta=1, threshold=20)
)
[10:56:14] DeepAR.Train: Starting training for 15 epoch(s)
[10:56:14] DeepAR.Train: begin training and evaluation
[10:56:14] DeepAR.Train: Epoch 1/15
[10:58:28] DeepAR.Train: Loading the datasets...
[10:58:28] DeepAR.Data: train_len: 162
[10:58:28] DeepAR.Data: building datasets from data/t_stock_processed...
[10:58:28] DeepAR.Data: test_len: 67
[10:58:28] DeepAR.Data: building datasets from data/t_stock_processed...
[10:58:28] DeepAR.Data: weights: tensor([… dtype=torch.float64)
[10:58:28] DeepAR.Data: num samples: 162
[10:58:28] DeepAR.Train: Loading complete.
[10:58:28] DeepAR.Train: Model: 
Net(
  (embedding): Embedding(1284, 24)
  (lstm): LSTM(34, 96, num_layers=2, dropout=0.15)
  (skip_connection): Linear(in_features=34, out_features=96, bias=True)
  (distribution_mu): Linear(in_features=192, out_features=1, bias=True)
  (distribution_presigma): Linear(in_features=192, out_features=1, bias=True)
  (distribution_sigma): Softplus(beta=1, threshold=20)
)
[10:58:29] DeepAR.Train: Starting training for 15 epoch(s)
[10:58:29] DeepAR.Train: begin training and evaluation
[10:58:29] DeepAR.Train: Epoch 1/15
[11:00:20] DeepAR.Train: Loading the datasets...
[11:00:20] DeepAR.Data: train_len: 162
[11:00:20] DeepAR.Data: building datasets from data/t_stock_processed...
[11:00:20] DeepAR.Data: test_len: 67
[11:00:20] DeepAR.Data: building datasets from data/t_stock_processed...
[11:00:20] DeepAR.Data: weights: tensor([… dtype=torch.float64)
[11:00:20] DeepAR.Data: num samples: 162
[11:00:20] DeepAR.Train: Loading complete.
[11:00:20] DeepAR.Train: Model: 
Net(
  (embedding): Embedding(1284, 24)
  (lstm): LSTM(33, 96, num_layers=2, dropout=0.15)
  (skip_connection): Linear(in_features=33, out_features=96, bias=True)
  (distribution_mu): Linear(in_features=192, out_features=1, bias=True)
  (distribution_presigma): Linear(in_features=192, out_features=1, bias=True)
  (distribution_sigma): Softplus(beta=1, threshold=20)
)
[11:00:21] DeepAR.Train: Starting training for 15 epoch(s)
[11:00:21] DeepAR.Train: begin training and evaluation
[11:00:21] DeepAR.Train: Epoch 1/15
[11:02:15] DeepAR.Eval: - Full test metrics: ND: 1.008; RMSE: 11.667; test_loss: 23.085
[11:02:15] DeepAR.Train: train_loss: 12121.046875
[11:02:15] DeepAR.Train: train_loss: 12121.046875
…
